Using TensorFlow backend.
Found 7819 images belonging to 5 classes.
Found 866 images belonging to 5 classes.
_________________________________________________________________
Layer (type)                 Output Shape              Param #   
=================================================================
zero_padding2d_1 (ZeroPaddin (None, 102, 102, 3)       0         
_________________________________________________________________
conv2d_1 (Conv2D)            (None, 100, 100, 64)      1792      
_________________________________________________________________
zero_padding2d_2 (ZeroPaddin (None, 102, 102, 64)      0         
_________________________________________________________________
conv2d_2 (Conv2D)            (None, 100, 100, 64)      36928     
_________________________________________________________________
max_pooling2d_1 (MaxPooling2 (None, 50, 50, 64)        0         
_________________________________________________________________
zero_padding2d_3 (ZeroPaddin (None, 52, 52, 64)        0         
_________________________________________________________________
conv2d_3 (Conv2D)            (None, 50, 50, 128)       73856     
_________________________________________________________________
zero_padding2d_4 (ZeroPaddin (None, 52, 52, 128)       0         
_________________________________________________________________
conv2d_4 (Conv2D)            (None, 50, 50, 128)       147584    
_________________________________________________________________
max_pooling2d_2 (MaxPooling2 (None, 25, 25, 128)       0         
_________________________________________________________________
zero_padding2d_5 (ZeroPaddin (None, 27, 27, 128)       0         
_________________________________________________________________
conv2d_5 (Conv2D)            (None, 25, 25, 256)       295168    
_________________________________________________________________
zero_padding2d_6 (ZeroPaddin (None, 27, 27, 256)       0         
_________________________________________________________________
conv2d_6 (Conv2D)            (None, 25, 25, 256)       590080    
_________________________________________________________________
zero_padding2d_7 (ZeroPaddin (None, 27, 27, 256)       0         
_________________________________________________________________
conv2d_7 (Conv2D)            (None, 25, 25, 256)       590080    
_________________________________________________________________
max_pooling2d_3 (MaxPooling2 (None, 12, 12, 256)       0         
_________________________________________________________________
zero_padding2d_8 (ZeroPaddin (None, 14, 14, 256)       0         
_________________________________________________________________
conv2d_8 (Conv2D)            (None, 12, 12, 512)       1180160   
_________________________________________________________________
zero_padding2d_9 (ZeroPaddin (None, 14, 14, 512)       0         
_________________________________________________________________
conv2d_9 (Conv2D)            (None, 12, 12, 512)       2359808   
_________________________________________________________________
zero_padding2d_10 (ZeroPaddi (None, 14, 14, 512)       0         
_________________________________________________________________
conv2d_10 (Conv2D)           (None, 12, 12, 512)       2359808   
_________________________________________________________________
max_pooling2d_4 (MaxPooling2 (None, 6, 6, 512)         0         
_________________________________________________________________
zero_padding2d_11 (ZeroPaddi (None, 8, 8, 512)         0         
_________________________________________________________________
conv2d_11 (Conv2D)           (None, 6, 6, 512)         2359808   
_________________________________________________________________
zero_padding2d_12 (ZeroPaddi (None, 8, 8, 512)         0         
_________________________________________________________________
conv2d_12 (Conv2D)           (None, 6, 6, 512)         2359808   
_________________________________________________________________
zero_padding2d_13 (ZeroPaddi (None, 8, 8, 512)         0         
_________________________________________________________________
conv2d_13 (Conv2D)           (None, 6, 6, 512)         2359808   
_________________________________________________________________
max_pooling2d_5 (MaxPooling2 (None, 3, 3, 512)         0         
_________________________________________________________________
flatten_1 (Flatten)          (None, 4608)              0         
_________________________________________________________________
dense_1 (Dense)              (None, 4096)              18878464  
_________________________________________________________________
dropout_1 (Dropout)          (None, 4096)              0         
_________________________________________________________________
dense_2 (Dense)              (None, 4096)              16781312  
_________________________________________________________________
dropout_2 (Dropout)          (None, 4096)              0         
_________________________________________________________________
dense_3 (Dense)              (None, 5)                 20485     
=================================================================
Total params: 50,394,949
Trainable params: 50,394,949
Non-trainable params: 0
_________________________________________________________________
Epoch 1/30
129/245 [==============>...............] - ETA: 28s - loss: 1.5867 - acc: 0.2771  C:\Users\Rub3z\Anaconda3\envs\vggnet\lib\site-packages\PIL\Image.py:953: UserWarning: Palette images with Transparency   expressed in bytes should be converted to RGBA images
…
